…
Tomato___Tomato_mosaic_virus                       |      299   0.7% |       53   0.6% |       21   1.0% |      373   0.7%
Tomato___healthy                                   |     1273   2.9% |      259   3.0% |       59   2.7% |     1591   2.9%
---------------------------------------------------------------------------------------------------------------------------
TOTAL                                              |    43444   100% |     8688   100% |     2173   100% |    54305   100%
2025-04-23 10:48:12,594 - INFO - Initializing model...
2025-04-23 10:48:12,762 - INFO - Model architecture:
PlantDiseaseCNN(
  (features): Sequential(
    (0): Conv2d(3, 32, kernel_size=(3, 3), stride=(1, 1), padding=(1, 1), bias=False)
    (1): BatchNorm2d(32, eps=1e-05, momentum=0.1, affine=True, track_running_stats=True)
    (2): ReLU(inplace=True)
    (3): Conv2d(32, 32, kernel_size=(3, 3), stride=(1, 1), padding=(1, 1), bias=False)
    (4): BatchNorm2d(32, eps=1e-05, momentum=0.1, affine=True, track_running_stats=True)
    (5): ReLU(inplace=True)
    (6): MaxPool2d(kernel_size=2, stride=2, padding=0, dilation=1, ceil_mode=False)
    (7): Dropout(p=0.3, inplace=False)
    (8): Conv2d(32, 64, kernel_size=(3, 3), stride=(1, 1), padding=(1, 1), bias=False)
    (9): BatchNorm2d(64, eps=1e-05, momentum=0.1, affine=True, track_running_stats=True)
    (10): ReLU(inplace=True)
    (11): Conv2d(64, 64, kernel_size=(3, 3), stride=(1, 1), padding=(1, 1), bias=False)
    (12): BatchNorm2d(64, eps=1e-05, momentum=0.1, affine=True, track_running_stats=True)
    (13): ReLU(inplace=True)
    (14): MaxPool2d(kernel_size=2, stride=2, padding=0, dilation=1, ceil_mode=False)
    (15): Dropout(p=0.4, inplace=False)
    (16): Conv2d(64, 128, kernel_size=(3, 3), stride=(1, 1), padding=(1, 1), bias=False)
    (17): BatchNorm2d(128, eps=1e-05, momentum=0.1, affine=True, track_running_stats=True)
    (18): ReLU(inplace=True)
    (19): Conv2d(128, 128, kernel_size=(3, 3), stride=(1, 1), padding=(1, 1), bias=False)
    (20): BatchNorm2d(128, eps=1e-05, momentum=0.1, affine=True, track_running_stats=True)
    (21): ReLU(inplace=True)
    (22): MaxPool2d(kernel_size=2, stride=2, padding=0, dilation=1, ceil_mode=False)
    (23): Dropout(p=0.5, inplace=False)
  )
  (pool): AdaptiveAvgPool2d(output_size=(7, 7))
  (classifier): Sequential(
    (0): Linear(in_features=6272, out_features=1024, bias=True)
    (1): BatchNorm1d(1024, eps=1e-05, momentum=0.1, affine=True, track_running_stats=True)
    (2): ReLU(inplace=True)
    (3): Dropout(p=0.6, inplace=False)
    (4): Linear(in_features=1024, out_features=512, bias=True)
    (5): BatchNorm1d(512, eps=1e-05, momentum=0.1, affine=True, track_running_stats=True)
    (6): ReLU(inplace=True)
    (7): Dropout(p=0.5, inplace=False)
    (8): Linear(in_features=512, out_features=38, bias=True)
  )
)
2025-04-23 10:48:12,763 - INFO - Calculating class weights with optimized balancing...
2025-04-23 10:48:12,992 - INFO - 
📊 Class Distribution and Optimized Weights:
2025-04-23 10:48:12,992 - INFO - Class                                                |   Count |  Weight |  Effective Samples
2025-04-23 10:48:12,993 - INFO - ---------------------------------------------------------------------------------------------
…
